hw_projects/GuldoganOzgur_2D_Shapes/models/cnn_vanilla.pth (torch, 679280 bytes, 10 tensors)

conv1.weight f4 [6, 1, 5, 5]
000000 08 44 ba 3d c1 02 8d bb f4 d2 95 3d a7 74 3d 3d
       0.09095007 -0.004303307 0.07315627 0.046253826
000010 32 71 9e 3d 1c 24 d3 3d 97 11 39 be 04 52 be 3d
       0.07736434 0.10309622 -0.18073116 0.09292987
000020 d9 99 12 be 95 6a 0d be 46 62 8b 3c e9 3a bc bc
       -0.143165 -0.13810189 0.017014634 -0.02297731
000030 79 c8 f5 3d e1 b6 01 be 6d 21 39 be ea ed 25 3e
       0.12001128 -0.12667419 -0.18079157 0.16204038
000040 86 ee db bc e7 d7 fd 3d 32 f0 89 3d 18 7d 23 be
       -0.026847135 0.12394696 0.06735267 -0.15965688
000050 eb a2 81 3d b6 b9 9b 3d f3 23 ea bd fa 55 b6 bd
       0.06329902 0.07603781 -0.11432638 -0.089031175
000060 20 2c 94 3d 45 ae da 3c f9 27 c3 bd 30 63 94 bd
       0.07234979 0.026694426 -0.095291086 -0.07245481
000070 4b c1 34 3e 9b 52 03 bd bc 62 db 3d 12 e0 9d 3d
       0.1765186 -0.0320612 0.107121915 0.07708754
000080 6a 5c 10 be bf c9 33 be a1 f6 43 3e 4a 87 cd 3b
       -0.14097753 -0.17557429 0.1913705 0.006272231
000090 80 06 04 3e 19 43 0f 3d 89 52 85 3d e6 a7 1d 3e
       0.12893105 0.0349761 0.06509883 0.1539608
0000a0 6e 04 38 3e 96 3e 0d be 3c d5 77 3c 92 28 11 3e
       0.1797044 -0.13793406 0.015126523 0.14175633
0000b0 64 7f 17 3e c3 cc e7 3d 46 98 1d be 03 22 1a be
       0.1479469 0.11318352 -0.15390119 -0.15052037
0000c0 cb b2 04 be 6a 09 bb 3c d7 1b 4b 3e e7 b0 04 be
       -0.12958829 0.022831637 0.19834839 -0.12958108
0000d0 c6 7e d3 3d 29 e8 f0 bd 64 cf 47 be 08 27 42 bd
       0.103269145 -0.11763031 -0.19512707 -0.047400504
0000e0 e3 1f e8 3d 09 6c 3b 3e 3f 76 02 be 9d fc 08 3d
       0.11334207 0.18302931 -0.1274042 0.033444036
0000f0 1e c4 2b 3e 5b 4f 06 3e fb 3d 01 3e 46 ea 13 3e
       0.16774032 0.13116209 0.126213 0.14444837
000100 e3 0d 03 3e b0 13 35 3d 74 de 0f be b4 95 2c be
       0.12798266 0.04420823 -0.14049703 -0.16853982
000110 69 31 bc bd 25 ac d7 bc 84 d1 04 be 17 aa 8d 3d
       -0.09189112 -0.026327202 -0.12970549 0.06917208
000120 16 78 64 3d 05 37 46 bd ee 32 9a 3d f2 bd 81 3d
       0.055778585 -0.048392314 0.07529245 0.06335057
000130 10 c4 05 3e ef 74 0f 3e 73 88 59 bd c0 da 58 3e
       0.13063073 0.1400945 -0.053108644 0.21177197
000140 47 cd e3 bc e1 8b 1f bc f6 6a 4c be 71 06 19 be
       -0.027807845 -0.00973794 -0.19962677 -0.14943863
000150 19 c9 eb bd 5a 6c b7 bd 4e f7 1b 3e 42 cc bd bd
       -0.11512966 -0.08956213 0.15231058 -0.09267475
000160 33 34 17 be c9 5e 9e 3d 96 97 8a 3d 4d c2 de 3d
       -0.14766006 0.077329226 0.06767194 0.10876904
000170 a5 52 f4 bd 2e 14 21 3d dd b7 bf bd e3 57 86 bd
       -0.11929826 0.039325885 -0.09361241 -0.06559732
000180 c4 01 21 be 9f 17 ce bd a8 51 60 bd 45 2f 66 3d
       -0.1572333 -0.10063099 -0.054765373 0.056197423
000190 63 58 29 3d b1 0a 63 3d 6f 17 56 3e f6 45 4e 3e
       0.041344058 0.055430118 0.20907377 0.20143875
0001a0 6d 98 11 3e 60 75 ab 3b 31 81 0e be 12 9c 23 3e
       0.14218302 0.005232498 -0.1391647 0.15977505
0001b0 3b ba 2e bd f9 76 4f bc 1d 8c 32 be f7 5c 38 bd
       -0.042658072 -0.012662643 -0.17436261 -0.045010533
0001c0 50 8b 07 be 06 3b 3f 3e d3 b3 2e be b8 d2 22 be
       -0.13236737 0.1867486 -0.17060785 -0.15900695
0001d0 31 b9 39 bc d0 8e e9 bd be 85 93 3d db 94 9a bd
       -0.011335657 -0.114041924 0.07203244 -0.07547923
0001e0 ce 92 bf bd 37 38 13 3c e5 ed 0f 3e 52 4b 18 be
       -0.09354173 0.008985571 0.14055593 -0.14872482
0001f0 f8 31 c4 3d f1 b2 00 3e 73 33 45 3e fd da 21 be
       0.09579843 0.1256826 0.19257908 -0.15806194
000200 32 dc fe 3c 1b 90 2c be 69 f7 2e 3e ad 4b 9f bd
       0.031110857 -0.16851847 0.17086567 -0.07778106
000210 30 aa ed 3d 10 03 cb bb 71 1c 05 bd 56 a1 45 bc
       0.11604726 -0.0061954334 -0.032497827 -0.012062391
000220 5e c3 f9 3c be bf bc 3d 38 2d fe 3c ad 51 50 3d
       0.030488666 0.092162594 0.031027421 0.050859142
000230 43 a5 46 be 12 98 0e 3e a6 7b 2f 3e a2 f8 27 3e
       -0.1939898 0.13925198 0.17137012 0.1640344
000240 9b 5d 15 3e a0 9b 25 be a3 e4 ae bd 6d 41 2f 3e
       0.14586489 -0.16172647 -0.08539703 0.17114802
000250 61 6e 1f be 2f a1 33 3e
       -0.1556945 0.17541955

conv1.bias f4 [6]
000000 76 cb 0c be 9a 51 1b be 22 7b a3 3d 7c b2 0e be
       -0.13749489 -0.15167847 0.0798247 -0.13935274
000010 38 8f 1d bd 68 e5 00 3e
       -0.038466662 0.12587512

conv2.weight f4 [16, 6, 5, 5]
000000 af a8 88 3d 77 b6 9b 3d bd df dc bc d2 29 9f bd
       0.06672799 0.07603162 -0.026962155 -0.077716485
000010 93 10 89 3d 3d c3 9d bc 67 64 2f bd 07 ad 4a 3c
       0.066926144 -0.019258136 -0.04282036 0.0123703545
000020 9f 54 8d bd 56 08 2c 3d e5 86 55 3d a8 44 98 bd
       -0.06900906 0.042000137 0.0521306 -0.0743497
000030 87 16 9b bd c0 ef 4d bc e4 b2 be 3c a2 37 7c bb
       -0.07572656 -0.012569368 0.023278661 -0.0038485308
000040 ff 93 51 bd 7a 98 97 bb 04 cd aa bd 50 49 84 bd
       -0.05116653 -0.004626331 -0.08339885 -0.06459296
000050 ba ec 50 bd 28 3a 74 3d ad f7 8c 3d 33 ca 20 bd
       -0.05100701 0.059625775 0.06883178 -0.039255332
000060 9d 9d 25 bc 75 0b ea 3c 18 3b 7a b9 0b d9 50 bd
       -0.010108379 0.028569916 -0.00023863872 -0.05098824
000070 d9 17 1c 3d d2 e2 32 3d e8 68 3d bc 6c d0 aa bc
       0.03810868 0.043673344 -0.011560656 -0.020851336
000080 4e 92 85 3d b9 e7 81 3d 0e 74 4e bd 63 76 92 3d
       0.06522046 0.06343026 -0.050403647 0.07151487
000090 1d 14 0a 3c 5e e4 86 bd 5e 7d 1b 3d 85 ac 83 bd
       0.008427647 -0.06586526 0.037961356 -0.0642939
0000a0 60 28 88 3d db d8 7a bd f9 ae 68 3c 40 e4 82 3c
       0.06648326 -0.061241966 0.014201873 0.015977979
0000b0 f2 32 5b 3c 07 1a 75 3d 15 7a 3a bd fd 53 2b bd
       0.0133788455 0.059839275 -0.045526583 -0.041828144
0000c0 f2 b2 a1 bd d8 12 61 bc 17 98 39 bd ed 28 d1 bb
       -0.07895459 -0.013737403 -0.04531106 -0.0063830526
0000d0 3a 7a ec bc 32 09 9a 3c 31 a1 7b 3d 6d cc 8b 3c
       -0.028866876 0.018803213 0.06143302 0.017065251
0000e0 0d 08 10 bd 07 84 4e bd c8 b8 a7 bd 22 dc 79 3d
       -0.035163928 -0.05041888 -0.08189541 0.06100095
0000f0 72 1b cb bc 20 54 95 3b 1a a6 00 bc c9 e8 80 bd
       -0.02479336 0.0045571476 -0.007852102 -0.062944
000100 e4 42 17 3d fb 5e 16 3d 1a d9 e9 bb 04 4a 6c bd
       0.036929026 0.036711674 -0.007136476 -0.057687774
000110 1e 73 3b bd 7b 0f 26 bc 34 4c 66 bd a2 3b 68 bd
       -0.04576408 -0.010135527 -0.056225017 -0.056697495
000120 5e 22 99 bc 76 27 fa bc 05 71 59 3c 03 70 87 bc
       -0.018693145 -0.030536395 0.013271575 -0.016532904
000130 a0 b5 a1 bb 58 1d 0d bd b2 c2 bf bd ab 89 80 3d
       -0.0049349815 -0.034451813 -0.09363307 0.06276258
000140 6f d1 81 3c 3d 95 7c 3d c4 01 56 bc 92 d0 eb bc
       0.015846936 0.061665762 -0.013061944 -0.028785978
000150 32 ad b7 bd e3 60 16 bd 07 5e 37 3d 1c 19 bc bd
       -0.08968581 -0.036713492 0.044767406 -0.09184477
000160 7e bd ce bc cf 13 45 3d 26 0b 2b 3d b9 64 ae 3c
       -0.025236841 0.048114594 0.04175868 0.021288263
000170 85 75 d6 bc de 27 73 bc d2 48 ca bb 44 7a 20 bd
       -0.026179085 -0.014841048 -0.0061732316 -0.0391791
000180 cc 52 09 3d f1 3c 04 bd 51 7a 62 bd 57 d9 39 3c
       0.033526227 -0.03228468 -0.05529243 0.011343322
000190 64 eb 87 bd 29 9b af bc f7 53 1f 3d db b3 dd 3c
       -0.06636694 -0.02143629 0.038898434 0.0270633
0001a0 10 9e 80 3d dd 41 8b bd 24 45 32 bc d7 c4 04 bd
       0.06280148 -0.06799672 -0.010880742 -0.032414284
0001b0 3e 1d 4c bd b2 6a 49 bd ad 7b 8c 3c 8f f7 5a 39
       -0.049832575 -0.04917402 0.017148817 0.00020882323
0001c0 bb cb 57 bd 6c 06 76 bd fd 1d 85 bd 6b 75 97 3d
       -0.052684527 -0.060064718 -0.064998604 0.073954426
0001d0 55 50 c8 bc fd 3a e8 bc bc 6f 2b bd 6d 5c 2c bd
       -0.024452368 -0.02834844 -0.041854605 -0.04208033
0001e0 7c 84 a4 bd a3 74 5f bd f2 b5 56 3d 00 9f 15 3c
       -0.08033082 -0.054554593 0.05241961 0.009132147
0001f0 87 cf 1b bd ff a7 25 bd 10 7d 2e 3d 9a ab 43 3d
       -0.03803971 -0.040443417 0.042599738 0.047771074
000200 3f be 90 3d 56 fa 8f 3c 2f 39 f3 3c 39 95 8b bc
       0.070675366 0.017575424 0.029690353 -0.017038928
000210 b4 3e 70 bd ac bf b3 bd 42 c1 35 3d 15 47 b1 bc
       -0.05865355 -0.08776793 0.044373758 -0.02164034
000220 44 a1 b7 3c 90 2e 93 bb 4b a5 ad bd ac a6 44 bd
       0.022415765 -0.0044916347 -0.08478793 -0.048010513
000230 ae 21 47 3c 96 55 e3 bc 25 f2 b0 bd c5 bf a6 3c
       0.012154026 -0.027750771 -0.086399354 0.020355115
000240 64 69 ff bb 81 50 19 bd 2b 70 b7 3c 59 34 20 3c
       -0.007794546 -0.03743029 0.022392353 0.009778106
000250 ef 79 18 bd 5b 82 81 3d 17 f9 48 3d d2 7f 9b 3c
       -0.03722566 0.063236915 0.049065676 0.018981848
000260 d0 f0 14 bc b6 4d 4b bd 4b e8 91 3d f3 98 6c bc
       -0.009090617 -0.049634658 0.071243845 -0.014440763
000270 38 df 20 bd 64 d6 7e 3d 22 48 15 3d 77 85 d0 3c
       -0.039275378 0.062216178 0.036445744 0.025454266
000280 88 d2 3c bc 59 16 2c bc 44 0e a4 3c 12 88 8b 3d
       -0.011524804 -0.010503375 0.020026334 0.06813063
000290 a2 a1 7d 3c 72 44 cf bc 18 b8 b2 3d 6b 09 c1 3b
       0.015480431 -0.025301192 0.08726519 0.0058910153
0002a0 3b bd 8c 3d dc e5 19 3d d4 66 a7 3d e1 5b 5c 3d
       0.0687203 0.037572727 0.0817391 0.05379856
0002b0 93 e6 32 bd 57 76 4d 3d be 89 7a 3b 9b 48 8c bd
       -0.043676924 0.050161686 0.0038229073 -0.06849786
0002c0 b1 98 38 bc af bb ae bd 58 eb d0 bc d6 51 27 bd
       -0.011266873 -0.085318916 -0.025502846 -0.04084953
0002d0 03 b7 74 3d b3 84 23 bc b6 07 21 bc 7d 53 36 3d
       0.059744846 -0.009980368 -0.009828499 0.044513214
0002e0 40 97 69 3d a0 0b 3f bd fb 63 25 3d dc ca 0f 3d
       0.05702901 -0.046641946 0.040378552 0.03510557
0002f0 09 1e 85 bd e0 1c bc 3d fb a9 30 bd 3d b8 b2 bc
       -0.064998694 0.09185195 -0.043130856 -0.021816367
000300 2a 50 6e bd d7 8f 8f 3d 93 e9 c9 3c 44 c1 90 3d
       -0.05818192 0.07009857 0.02464751 0.070681125
000310 c4 29 15 3c e7 3c 48 3d 3e 31 d5 bc 65 13 68 bd
       0.009104196 0.048886206 -0.026024457 -0.05665912
000320 16 59 30 3c 6b 73 1e bc 9f 3e f9 bb 53 0a 1e bd
       0.010763427 -0.0096710725 -0.007606342 -0.038584065
000330 77 17 68 3c e6 13 c9 3c f5 5c fb 3c 16 08 87 bd
       0.014165751 0.024545621 0.030683974 -0.06593339
000340 4e ac 00 3d ba 03 32 3c 7e ea 8a 3d 89 e9 93 3d
       0.031414323 0.010865146 0.06783007 0.07222278
000350 09 14 86 bd 52 98 96 3d 5d 49 87 bd b5 c3 5d 3d
       -0.0654679 0.073532715 -0.0660579 0.05414172
000360 92 6d 75 3c 02 a9 3d 3d 24 4b 34 bd f5 03 39 3d
       0.014979737 0.046303757 -0.044016972 0.04516979
000370 53 f9 10 bd 76 91 91 bd f5 c0 01 3d c9 56 54 3d
       -0.035394024 -0.071078226 0.03167816 0.051840577
000380 9b 5b b6 3d dc d7 55 bb 43 0e b3 3d a6 1b 74 3d
       0.08904191 -0.0032629883 0.087429546 0.05959668
000390 85 cc 8f bc ac 00 63 bd 0a 8e 3c 3d d7 92 46 bd
       -0.017553577 -0.055420563 0.046033897 -0.04847988
0003a0 ec ff 52 3d d0 35 13 bd af 6c 8b 3d b6 e0 a6 3c
       0.051513597 -0.03593999 0.06807839 0.020370822
0003b0 1e 87 b3 bb 18 46 31 3d d4 a8 4f bd 4c e7 dc 3b
       -0.0054787537 0.043279737 -0.050698116 0.00674144
0003c0 e7 8f 85 3c b1 86 04 bd 88 1b 8d bc 6f 72 e7 bc
       0.01630397 -0.032355014 -0.017225042 -0.028252808
0003d0 8a 3e ed 3d 3a fb 98 3d b2 b3 9e 3d e6 4c a7 3d
       0.11584194 0.07469793 0.07749118 0.08168964
0003e0 99 0c 88 bd 60 1a 10 3d 12 0b 2a 3d 57 a9 77 bd
       -0.06643028 0.035181403 0.041514464 -0.06046423
0003f0 0a 4f 01 3d 95 98 d1 bc 7f 26 17 3d 59 2f e5 3c
       0.03156952 -0.025585452 0.036901947 0.027976679

conv2.bias f4 [16]
000000 ae 17 29 3d 75 65 fc bc 56 90 98 3d b2 58 5b 3d
       0.04128235 -0.030810097 0.07449405 0.053551383
000010 71 b3 2b 3b 02 0c 7a 3c 59 76 1c bd 57 57 82 bd
       0.0026199485 0.015261652 -0.038198803 -0.06364315
000020 a2 b1 3c bd 16 7a 1d 3c 71 c8 09 3d f4 5e 82 bb
       -0.04606784 0.009611627 0.03363842 -0.0039786045
000030 ca e5 13 bd ee 03 ec bc 7a 00 2a bd a9 69 54 bd
       -0.036107816 -0.028810468 -0.04150436 -0.051858578

fc1.weight f4 [120, 1296]
000000 51 dd 49 3c ff 9d f5 bc 39 f1 69 3c 3c d7 18 3c
       0.012320832 -0.029982565 0.014278703 0.00932866
000010 8d 8b 5e bc 49 5a 1d bc 7b 19 7b bc 27 72 f0 bc
       -0.013583076 -0.009604045 -0.015325899 -0.029351307
000020 bd 11 77 bb 70 4d df bc e3 b3 aa bb 67 62 80 bc
       -0.0037699782 -0.027258605 -0.0052094324 -0.015671922
000030 61 3e e1 bc 22 d2 01 bd 24 89 99 3c 9b 4e 7f 3c
       -0.027495565 -0.03169454 0.018742152 0.015582706
000040 04 f4 9e 3c 41 5b 8f 3b da 3f d1 3b e9 13 f6 3b
       0.019403465 0.004374892 0.0063857855 0.0075096977
000050 6c b1 6c 3c 9c e3 d9 ba e5 bd 4d bb 08 82 69 3c
       0.014446598 -0.0016623619 -0.0031393704 0.014252193
000060 ad 8c d4 3b f0 70 bb bc 77 b0 4f 3c 6b 80 aa 3c
       0.0064864964 -0.022881001 0.01267635 0.020813188
000070 19 76 87 bc 30 aa 04 bd be dd 31 bc 43 cf c5 bc
       -0.016535806 -0.032388866 -0.01085609 -0.024146682
000080 3a ab b0 3c 4d ce 42 bc 9c 2f a5 bc 52 70 40 3c
       0.021566022 -0.011890006 -0.020164303 0.011745529
000090 85 d7 97 3b c0 9d 0e 3b 82 6c 9b 3c ef e7 08 bd
       0.004633846 0.0021761507 0.018972639 -0.033424314
0000a0 ca 53 f3 3b 66 ee 9b bc 2e c2 5b 3b ca ed 82 bc
       0.00742576 -0.019034576 0.0033532488 -0.015982527
0000b0 bd ad 9e 3c a6 c2 39 bc 19 0d 59 bb ba 20 e4 bc
       0.019369954 -0.011337912 -0.003311938 -0.027847636
0000c0 f4 d2 31 3c 6c 38 09 bd 37 fe 17 3c 96 3c 5f 3c
       0.010853518 -0.033501074 0.009276918 0.013625285
0000d0 41 cc 83 3c 10 f4 32 3c e9 6c 73 bc 07 f8 a7 b9
       0.016088607 0.010922447 -0.014857509 -0.00032037517
0000e0 00 ab 86 3a 38 4e 05 bd 8a 62 13 3c 7b bf e8 bc
       0.0010274351 -0.0325453 0.0089956615 -0.028411618
0000f0 0b 0c 83 3b b2 8d aa 3c fe e2 60 bc 5f b3 10 bb
       0.0039992384 0.020819519 -0.013725994 -0.002207957
000100 7a 9f a1 3c 9f 6e 8a 3c 98 9b 8c 3c a5 a2 ce bc
       0.019729365 0.016898451 0.017164037 -0.02522404
000110 62 d7 0b ba 75 63 ef bc 21 c6 6e ba a0 44 04 bd
       -0.0005334524 -0.02922223 -0.0009108503 -0.03229201
000120 27 91 37 bb 9f 1b 04 3c 82 e6 fb bc 4b ab 27 bc
       -0.0028010102 0.008063226 -0.030749563 -0.0102337105
000130 34 49 8f bc 38 ba 89 3c 10 82 0f bc a3 ac 38 3c
       -0.01749096 0.016812429 -0.008759037 0.011271629
000140 7d 03 d9 bc 9e 86 0b bb ad 85 67 3c 31 4b 92 bb
       -0.026490921 -0.0021289955 0.014130992 -0.00446453
000150 6a ee 80 bc ea 52 8e bc 4e 56 9b 3c 15 87 33 3c
       -0.015738685 -0.01737352 0.018962052 0.010957499
000160 55 25 f4 3a e7 95 2a 3c d5 98 a7 bc d3 fc dd bc
       0.0018626848 0.010411716 -0.020458618 -0.027098095
000170 4e 20 49 bc 40 01 6b 3c 57 a4 06 bd c0 32 a2 bc
       -0.012275768 0.01434356 -0.03287157 -0.01979959
000180 64 ba dc 3b 5d 39 92 3b 7a 5f 01 3c 16 63 1d 3b
       0.0067360867 0.0044624046 0.007896299 0.0024015359
000190 2d 02 fa bc 6e 22 14 bc 84 77 35 3c 0c 02 a0 ba
       -0.030518616 -0.009041412 0.011075858 -0.0012207641
0001a0 70 61 17 3c bf a5 72 3c dc df 21 3c f7 c3 8f bc
       0.0092395395 0.014810025 0.009880032 -0.017549498
0001b0 cd 45 9e bc 58 07 32 bc 93 c5 e0 bb 5c 00 0a bc
       -0.019320393 -0.010866009 -0.00685949 -0.008422937
0001c0 c3 83 39 bc de 81 15 bb a1 fe 3b 3c 56 a7 cd bc
       -0.011322918 -0.0022813003 0.0114742825 -0.025104206
0001d0 b6 b3 04 3c 9c 1c 09 bd 00 5d f6 3a f9 50 cf bc
       0.008099487 -0.03347455 0.0018796027 -0.025307165
0001e0 89 82 aa 3c 70 ab f2 bc bb 5a b0 bc f2 43 4a 3c
       0.020814197 -0.029622763 -0.021527639 0.012345301
0001f0 d1 59 0e 3c d5 c4 81 3c c0 68 f9 3b d9 92 cc bc
       0.008688406 0.015840927 0.007611364 -0.024972366
000200 f2 8a 9f bc 4b cc 9b 3c bb 63 07 bd b8 bd 9b 3c
       -0.019475434 0.019018313 -0.033054095 0.019011363
000210 32 73 2f bc 59 a3 73 ba c2 cf eb bb 47 66 e5 bb
       -0.010708617 -0.0009294055 -0.0071963975 -0.007000718
000220 c2 df 51 bc 4e b0 07 3c 87 de 9f bb 80 ed 99 3b
       -0.012809696 0.00828178 -0.0048788222 0.0046975017
000230 6e 7e 8d 3c b7 aa 65 bb 43 de e3 bc 98 7a dd bc
       0.0172722 -0.003504438 -0.027815944 -0.027035996
000240 fe f8 3e 3c 04 1c 1f 3c b9 9f ae 3b 0e 13 63 bc
       0.011656044 0.009711269 0.005329099 -0.013859523
000250 eb 59 ba bc 62 8f 92 3c 78 83 03 bd 2a 8a a2 bc
       -0.022747954 0.017890636 -0.0321078 -0.019841272
000260 2e dc 31 3c 55 ac c4 3c 6b 60 1d bc 02 e6 dc bc
       0.010855718 0.024007956 -0.009605507 -0.026965145
000270 8c f4 ef 39 89 4d d9 bb 92 d9 27 bc 5b b6 fb bc
       0.00045767834 -0.0066315574 -0.010244744 -0.030726602
000280 ee e2 5c 3c a4 6c 84 3b 11 53 05 3b d5 20 2f 3c
       0.013481839 0.0040412713 0.00203437 0.01068898
000290 9d 8c 94 3c 84 9b 55 bc d4 65 69 bb 06 cc c0 bc
       0.018133456 -0.013037566 -0.0035613673 -0.023534786
0002a0 9b f8 dc bc 4b e7 a3 bc 18 b8 f2 ba d0 3e c1 bc
       -0.026974013 -0.02000775 -0.0018517999 -0.023589522
0002b0 c8 b1 1f 3c 06 64 71 3b e6 d2 77 bc 8a 59 fc 3b
       0.009746976 0.00368333 -0.015125966 0.0077011036
0002c0 e7 1b 72 3c 5c ff 79 bc b6 da 1a 3c f9 68 39 3c
       0.01477716 -0.015258636 0.009451559 0.011316531
0002d0 77 34 a4 3c be 38 d8 bc 6d c1 84 3c 35 34 c4 bb
       0.020044548 -0.026394244 0.016205514 -0.005987669
0002e0 45 07 88 bb 45 54 c7 bb fd 26 c4 bc a5 4c 84 bc
       -0.004151257 -0.0060830438 -0.023944372 -0.016149828
0002f0 c9 60 ea bc 75 94 1d bc 80 99 e2 3b fd b2 a1 bc
       -0.028610604 -0.009617914 0.0069152713 -0.019738669
000300 12 83 2f 3c 1d 3a 08 bd 73 a0 f2 3b 20 4c 08 bd
       0.010712402 -0.033258546 0.007404381 -0.033275723
000310 a5 a9 e1 bb 8b d7 6c 3c 3a a5 ff bc 19 59 b3 bc
       -0.0068866783 0.014455686 -0.031206716 -0.021893071
000320 1d 8d 5b bc 20 50 35 bc ae da 76 bc 2d 30 96 3c
       -0.013400343 -0.011066467 -0.015066786 0.018333519
000330 bf ef d4 bc 23 2e d7 3b 36 6f d4 bc 9b 9d 75 bc
       -0.025993226 0.006566779 -0.025931936 -0.014991189
000340 4e 7f e7 bc 1f 62 05 bd fd a1 76 bc 55 d5 73 3a
       -0.028258946 -0.03256428 -0.015053269 0.00093015033
000350 82 c1 12 3c e6 51 9f 3b 80 9f a6 3b e7 a9 8f 3c
       0.008957269 0.004862058 0.005084932 0.01753707
000360 45 35 eb bb d7 78 ad 3c 1a b9 f7 bc f2 1b 55 bc
       -0.007177981 0.021175785 -0.03023963 -0.013007151
000370 c5 e6 b6 bc e7 cf 9c bc a8 83 da bc 2e 64 04 bd
       -0.022326836 -0.019142104 -0.026674107 -0.0323221
000380 1f 98 a4 3c 6c d5 32 ba 51 aa 02 3c 62 d8 75 bc
       0.020092068 -0.00068219635 0.007975177 -0.015005203
000390 4a b4 af 39 f1 33 ab bc 4f 45 09 bd 9c 98 63 bb
       0.00033512927 -0.020898791 -0.033513363 -0.0034728413
0003a0 fe a9 34 3c 15 bd 2a bc bb d3 35 3b a2 71 ba 3b
       0.011026857 -0.010421057 0.002774461 0.0056898156
0003b0 ea af 68 3c 39 16 04 bd 2c 34 8f bc b0 58 88 bb
       0.014202097 -0.032247756 -0.017480932 -0.004160963
0003c0 ed e3 a9 3c c8 9d aa 3c 3e 68 cb bc 03 29 c7 bc
       0.020738566 0.02082719 -0.02482998 -0.024311548
0003d0 34 a8 a6 3c 2b 32 04 bc 9c b1 b5 bc 3e e3 a5 bc
       0.020343877 -0.008068602 -0.022179417 -0.02024996
0003e0 b2 36 26 3c 44 3e 38 3c db 51 8e 3c 99 cd 3e bc
       0.010144876 0.011245314 0.017373016 -0.011645698
0003f0 c2 39 6b bc 03 6f ef bb 36 b1 96 3c 6b 98 fb bc
       -0.014357032 -0.007306935 0.018395048 -0.030712327

fc1.bias f4 [120]
000000 b9 69 9a bc 60 7b 0d 3c 77 c4 17 bd 50 82 26 3c
       -0.01884924 0.008635372 -0.037052598 0.010162905
000010 c9 1c d5 3a 35 45 56 3b f7 99 89 bc 6b 75 bc bc
       0.0016259189 0.003269506 -0.016797049 -0.023005208
000020 42 2e 06 3d 64 0d 05 bd 66 42 ad 3c 71 74 30 3c
       0.03275896 -0.032483473 0.021149825 0.010769949
000030 ca 81 8d 3b 92 d3 b0 3c b8 a3 6b bb b4 25 0c 3d
       0.0043184506 0.02158526 -0.0035955738 0.034215644
000040 79 ed 84 3b 71 5d d1 3b 88 cf 38 3c b6 2e 94 3c
       0.0040566293 0.006389313 0.011279948 0.01808868
000050 41 2b 8e 3b e7 f9 72 3b 4b af ae ba d4 10 b1 3c
       0.0043386524 0.0037075223 -0.0013327388 0.02161447
000060 4a 01 b5 bc 9e da cc 3c d2 62 17 bc eb 0b 34 bc
       -0.022095341 0.025006589 -0.009239869 -0.01098917
000070 1a d5 aa bc 45 3a 12 ba 24 7b 9e bc e9 d3 c4 bb
       -0.020853568 -0.0005578141 -0.019345827 -0.006006707
000080 1e 2a e5 bc ba 98 86 ba 98 09 4e 3c e9 18 a8 3c
       -0.027974185 -0.0010268905 0.0125755295 0.02051969
000090 13 38 3f 3c 59 87 14 3c 32 25 b9 bc 3b f2 3f bc
       0.011671084 0.0090654725 -0.022600744 -0.011715467
0000a0 35 b0 46 3b ac 0d 02 bc 71 c3 be 3c 6e a8 ad ba
       0.003031743 -0.00793783 0.023286553 -0.0013249048
0000b0 f6 d5 dd 3c 1b 85 aa bb a2 df bc bb c4 f3 05 bb
       0.027079564 -0.0052038557 -0.005763964 -0.0020439485
0000c0 75 cf b6 bc 30 dc 58 3c dd c4 76 3c 1b f0 03 3c
       -0.02231572 0.013236091 0.015061584 0.008052851
0000d0 1d 8b 1d 3c 98 51 8e 3c 3c 19 2f 3c 39 c9 55 3c
       0.009615687 0.017372891 0.010687169 0.0130484635
0000e0 18 6d a5 bb 4f fc ac ba 7c 4a 0a 3d 27 7f 00 3b
       -0.0050484054 -0.0013197752 0.03376244 0.0019607039
0000f0 99 08 08 bd 47 3e e7 3b 1b 37 62 bc e7 7b a6 bc
       -0.033211324 0.0070569846 -0.0138070835 -0.020322753
000100 dd 31 38 bb 34 4c bb 3a d1 79 1c 3c b4 c8 9d bc
       -0.0028105893 0.0014289678 0.009550528 -0.019260742
000110 6d ef f4 3b 4b bc 20 3c 5d 65 d5 bc 93 9d df bb
       0.007474831 0.009810518 -0.02604931 -0.006824204
000120 62 b7 82 bb d0 fb 32 3c 5d 12 2d bc 73 21 83 b9
       -0.003989146 0.010924295 -0.01056346 -0.0002501119
000130 ea 7e b1 ba 43 91 72 3c c7 18 66 3b 0e 1d 06 bd
       -0.0013541852 0.014805141 0.0035109983 -0.032742552
000140 9b 01 f0 3c 1e 31 c5 bc 98 9a 2f bb 18 d6 f5 3c
       0.02929764 -0.024071272 -0.0026795026 0.030009314
000150 95 62 b6 bc 6f 94 3f bc 0d 87 88 bc f5 c1 36 3c
       -0.022263804 -0.011693104 -0.01666596 0.011154641
000160 92 11 c6 bb 15 4b c2 bc a7 d6 cc bc 13 89 6c bc
       -0.006044575 -0.023717443 -0.025004698 -0.014436978
000170 3d 21 f7 bc d2 e9 e1 39 71 32 19 3c c6 b4 8c 3b
       -0.030167216 0.00043089554 0.009350405 0.004294011
000180 3b 77 a4 3c 64 1d 76 b8 64 83 37 3c 30 54 6e bc
       0.020076385 -5.8678343e-05 0.01120076 -0.014546439
000190 65 a9 66 3c b0 24 51 3c 75 8b 8c bb 7b 0c bb bb
       0.014078473 0.012765095 -0.0042890855 -0.005708275
0001a0 91 98 eb bb b9 ba 91 3c 75 d5 dc 3c 05 0a 0a bd
       -0.007189818 0.017789232 0.026957253 -0.03370096
0001b0 e9 b2 d2 3c 0c d3 f8 bc f6 ec 15 bb 65 11 d9 bc
       0.025720077 -0.030374072 -0.0022876835 -0.026497552
0001c0 94 54 62 bc 18 d0 af 3c 1e c4 34 bb 5a dd 7d 3c
       -0.01381411 0.021461532 -0.0027582715 0.015494669
0001d0 8e b5 fa bc 6c 73 e5 3c 01 47 5f 3c 74 4f 8e 3c
       -0.03060415 0.028009139 0.0136277685 0.01737187

fc2.weight f4 [84, 120]
000000 78 ad 88 bd 5b 2a 1a 3d 71 88 bb bc 59 ca 52 bd
       -0.066737115 0.03763805 -0.022892209 -0.051462505
000010 f7 cf 2f bd 4a 92 3f bc cb 38 c0 3d 8d 45 79 3c
       -0.04292294 -0.011692593 0.093858324 0.015214336
000020 6f b6 f7 bc 36 1b fd 39 f7 93 99 bc 67 55 ae bc
       -0.030238358 0.00048276194 -0.018747313 -0.021280957
000030 f8 f2 61 bd 5a 55 4c bc 13 26 30 3d f6 5e 98 3b
       -0.055163354 -0.012471521 0.04300506 0.004649992
000040 d8 ad 36 3d 5d 1f 84 3c d7 21 da bc 99 60 92 3d
       0.044599384 0.016128236 -0.026627464 0.07147331
000050 37 46 ab 3d 23 a7 af 3d 3e d5 83 3d 81 88 af 3b
       0.08363002 0.08576801 0.06437157 0.0053568487
000060 e0 8d 85 3d 00 69 34 bc 67 96 98 bd f0 8c 20 bd
       0.06521201 -0.011011362 -0.07450562 -0.03919691
000070 00 ff 32 bd 0d d6 9e bd d7 66 a9 3d 6f ff 82 bd
       -0.04370022 -0.07755671 0.08271568 -0.06396376
000080 8a 2f 97 3c 10 c3 0b 3d 47 86 84 bd ae f4 a7 bd
       0.018455286 0.034121573 -0.06470924 -0.08200966
000090 d0 89 bd bd b1 eb af bc de 7a ee 3c fa 9d b7 bd
       -0.09254801 -0.021474691 0.029111322 -0.089656785
0000a0 eb bb a4 3c f3 a8 af 3d 34 92 67 3d 8b 4e 7b 3d
       0.020109138 0.085771464 0.056535915 0.0613542
0000b0 33 08 39 3d 83 0e c2 3d 6a f0 a3 3d 8a 92 39 bd
       0.045173835 0.09475424 0.0800484 -0.045305766
0000c0 9b 7d ab bd b2 69 ef 3c c0 05 98 bd 90 20 ae bd
       -0.08373567 0.029225204 -0.07422972 -0.085023046
0000d0 8b ca 8b 3d 8b ff c6 bd 5c 16 a2 3d d2 d9 a4 3d
       0.068257414 -0.0971671 0.07914421 0.080493584
0000e0 7f 87 9f 3d 50 e1 73 3d 5a 17 7e bd e1 aa d3 bc
       0.07789516 0.059541047 -0.06203399 -0.025838317
0000f0 83 e8 83 bd 66 54 31 bc 79 df 9d 3d 94 19 99 bd
       -0.064408325 -0.010823345 0.0770864 -0.07475582
000100 41 66 e0 3c a8 1a b0 bd 97 19 8b 3d 15 9c d9 3c
       0.027392508 -0.08598834 0.0679199 0.026563684
000110 3d 0b 62 39 8d 0b 9f 3d 4e 24 b9 3c 24 c7 79 3d
       0.00021557226 0.07765875 0.02260032 0.06098093
000120 85 05 ab 3c 10 39 08 3d 01 97 88 bb 3d 15 ac bd
       0.020876655 0.033257544 -0.0041683917 -0.084024884
000130 dd 5c 9d bd c1 d4 1d bd 51 49 97 3c b4 22 8e 3d
       -0.07683728 -0.038532976 0.018467577 0.06940213
000140 96 96 da bb 15 42 72 3d 21 c8 9b bc 9b 4f 0e bd
       -0.0066707833 0.059145052 -0.019016327 -0.034743886
000150 71 9a 2d 3d 52 8f 3d bd 58 f1 84 3d 0a 2a 0d bd
       0.042383615 -0.04627926 0.06491345 -0.03446392
000160 a4 ff b4 3d ed 83 87 3a 6b 4e b5 bd 8b c5 81 3d
       0.08837822 0.0010339 -0.08852848 0.063365065
000170 c1 bb 97 3d 7e 9f ab 3d 99 44 8b bd 09 64 3d bb
       0.07408858 0.0838003 -0.06800193 -0.0028898737
000180 41 b2 49 3d 28 05 a8 bd e3 19 90 3c c7 98 3b bd
       0.04924226 -0.082041085 0.017590469 -0.045799997
000190 b2 1c 26 3d 01 84 a8 3d 05 eb 9e bd 63 7e ab bd
       0.04055471 0.08228303 -0.0775967 -0.08373716
0001a0 95 19 23 bd df e7 a9 3d d2 0e c4 bb df 14 26 bd
       -0.03981932 0.08296179 -0.005983212 -0.040547248
0001b0 8d 40 7a 3c bd 41 2d bd 12 1c 76 bd 46 f5 33 3d
       0.015274179 -0.04229902 -0.060085364 0.043935083
0001c0 b4 55 95 3d 52 55 4e 3d ae 3e 5e 3d 64 a9 d9 3c
       0.07291737 0.050374337 0.054258995 0.02657003
0001d0 56 ec ee bc 4a 07 b8 bd a5 89 99 3c 4f 67 57 bd
       -0.029165428 -0.08985765 0.018742392 -0.052588757
0001e0 42 ec 27 3d 43 49 74 3d 4b 00 86 bd 5d 14 28 3d
       0.040996797 0.05964018 -0.06543025 0.041035045
0001f0 5a 48 1f bd 19 f8 0f bd e7 d1 47 bc c5 6e 46 3d
       -0.03888736 -0.035148714 -0.012196041 0.04844548
000200 b1 3e 85 bd c0 6d 2e 3d 1b 59 a4 bd 9e 1b 9b 3c
       -0.06506098 0.042585135 -0.08024808 0.018934067
000210 bf c7 85 bd c6 ce b5 3d 58 fd 5f b8 bc 6e 53 3d
       -0.06532239 0.088773295 -5.3403288e-05 0.051619276
000220 ad c6 7a bd 98 70 55 3c cc 3b 8c bd 77 80 c0 3d
       -0.06122463 0.013027333 -0.06847343 0.09399503
000230 01 e6 78 bd ca c5 df bc 51 22 7d bd 3f df 43 3c
       -0.060766224 -0.027315993 -0.061800305 0.0119550815
000240 6c 13 83 bd 08 9b 9b 3d e5 d1 b5 3b 35 d7 a1 bd
       -0.06400189 0.07597929 0.005548703 -0.079023756
000250 bf 18 72 3d 59 24 9a 3d c9 9b a4 bc 41 f2 61 3d
       0.05910563 0.07526464 -0.020093815 0.055162672
000260 f4 57 a6 bd ad 2e 84 3d 10 10 be 3d 6f c0 82 bc
       -0.081222445 0.06454215 0.092804074 -0.0159609
000270 a4 80 3d bb 1d 95 f1 3c 4e 54 b2 bd 9c 4b dc ba
       -0.0028915787 0.029490048 -0.08707486 -0.0016807201
000280 f3 45 76 3d 45 12 ba 3d 44 11 b7 bd eb 17 2e 3d
       0.060125303 0.09085516 -0.0893884 0.04250328
000290 d4 4d 13 bc 97 5e 14 bd 55 37 87 3d 77 0d 12 3d
       -0.008990724 -0.03622302 0.066023506 0.035657372
0002a0 66 6f cd bc 21 a1 25 bd c4 7e b5 bd a1 86 31 bc
       -0.025077533 -0.040436868 -0.08862069 -0.010835321
0002b0 bc 68 b0 bd dd 80 36 3d ea a9 d1 3c 82 a6 8d 3c
       -0.086137265 0.044556487 0.025593717 0.017291311
0002c0 e1 95 54 3d 9e 3f 8f 3b fe c7 d2 bc 63 bc 7c 3d
       0.05190075 0.0043715974 -0.02573013 0.061703097
0002d0 46 b9 d2 3b 09 b0 fc 3c e1 9c 0f 3c 0d 78 a6 3d
       0.0064307777 0.030845659 0.00876543 0.081283666
0002e0 3e ff ab bc 67 e9 a7 bd 0d 7f 0b bc 7e 15 aa 3c
       -0.020995732 -0.08198815 -0.008514178 0.020762201
0002f0 75 ed cb 3b 70 4b 44 3d d9 3a a4 3d db 48 9c 3d
       0.0062233754 0.047923505 0.08019037 0.076310836
000300 40 69 98 3c 06 e9 30 bc 3e dc ca 3c 6b 75 82 3d
       0.018604875 -0.010797745 0.024763223 0.06370052
000310 4f 3c 5d bd e9 a7 8b 3b df 36 22 bd 4d 44 4e 3d
       -0.054012593 0.00426196 -0.03960311 0.050358105
000320 91 e2 3f 39 78 8b 58 3d bf cd c7 bc ae d3 41 3d
       0.00018299582 0.052867383 -0.0243901 0.047321014
000330 44 b1 58 3d 5d 7b e3 3c 22 fc 14 3c f1 18 8e bd
       0.05290343 0.027768785 0.009093316 -0.06938351
000340 fb d3 ac 3d c0 d0 b2 3d 7c 5f 0a 3d 35 ce b2 3d
       0.084388696 0.08731222 0.033782467 0.08730737
000350 d5 85 96 3d 14 17 a5 bd 25 34 f6 3c 81 12 d9 3a
       0.07349745 -0.080610424 0.030054161 0.0016561301
000360 96 ef 7f bd 3f 53 10 bd 02 62 53 3d 21 c8 ab bd
       -0.062484346 -0.03523564 0.05160714 -0.08387781
000370 52 1d 63 bd 1d 79 1d 3b dc 47 93 3d 08 2d aa bd
       -0.055447884 0.0024028488 0.071914405 -0.0830937
000380 68 d1 27 bd 57 c8 0a bc 11 f7 55 3d ae e5 94 3b
       -0.04097119 -0.008470616 0.052237574 0.0045439815
000390 db 8e dc bc eb f6 9a bd a0 eb 9d bd 0a aa ac 3c
       -0.026923588 -0.07566627 -0.077109575 0.021077175
0003a0 2c 1e e5 bd a2 c0 bc bc 52 19 91 bd 67 1c 84 3b
       -0.111873955 -0.023041073 -0.070849076 0.004031706
0003b0 52 00 c4 3d b5 15 14 3d 23 7e bb 3d bf 37 b0 3b
       0.095703736 0.036153514 0.09154918 0.005377739
0003c0 9e b6 60 bc 42 93 ad bc eb 29 74 3d dd 74 ad bd
       -0.013715414 -0.021188382 0.05961029 -0.084695555
0003d0 ec 87 5f 3d 85 32 86 3d 45 05 a8 bd a6 8c 9a bc
       0.054572985 0.065526046 -0.0820413 -0.018865895
0003e0 77 a6 45 bd a6 9a 28 bd 9a 71 32 bd b1 6f 68 bd
       -0.048254456 -0.04116311 -0.04356537 -0.056747142
0003f0 33 35 3f bc 5a 30 14 3c 50 82 59 bd 96 a8 47 bd
       -0.0116703985 0.009044731 -0.05310279 -0.04874476

fc2.bias f4 [84]
000000 7f d3 0d 3d a0 6b 59 3c e8 49 9a 3d d2 2e b5 bd
       0.034625527 0.013270289 0.07533628 -0.08846821
000010 56 34 b1 bd 3b 40 d1 bb c7 68 64 bd 08 f9 50 3d
       -0.086525604 -0.0063858307 -0.055763986 0.051018745
000020 df a2 b3 bc 00 66 e0 bb 35 5b 35 bd 9b 75 05 bb
       -0.021928249 -0.006848097 -0.044276435 -0.0020364288
000030 48 8a ce 3c 5b aa a1 bd 3a 1a fa 3c f9 17 53 3c
       0.025212422 -0.07893821 0.030530084 0.0128841335
000040 5a 6f f7 bc 60 ab 77 3c 57 5c 93 3d 01 17 a9 3c
       -0.030204464 0.015116543 0.07195347 0.020640852
000050 bd 3f 8b 3d bf fe 8c bd 86 60 c7 bc cb 7d 96 3d
       0.067992665 -0.068845265 -0.024338018 0.07348212
000060 ee 23 b3 3d b3 41 b5 3b 05 1d b0 bc 7a 35 9c 3d
       0.087470874 0.0055315136 -0.021498213 0.07627387
000070 b3 f7 32 bd ea be 66 3d fe d6 b4 bc 5a e7 e9 3c
       -0.043693256 0.056334414 -0.022075173 0.0285527
000080 f3 59 ac bc d0 55 89 bc 46 12 a8 3d 8c 7f 24 bd
       -0.021038985 -0.016764551 0.082066104 -0.0401607
000090 79 5a 75 3d b2 b4 82 bc 6c 0b 6e bd 80 ce 81 bb
       0.059900735 -0.015955303 -0.05811636 -0.0039613843
0000a0 59 4e c5 3c b5 37 0b bd fc 1b 2c 3d f3 c8 24 3d
       0.02408521 -0.033988673 0.042018875 0.040230703
0000b0 71 82 89 bd f2 fd 6f 3d 9a 80 de 3c fd 2a d2 bc
       -0.06714333 0.05859179 0.027160931 -0.025655264
0000c0 02 1b 0f 3d 2c ea 42 3d 02 5a e4 bc ce 63 19 3d
       0.034937866 0.047586605 -0.02787495 0.037448697
0000d0 06 d2 45 bd 3f 7d 84 3b e0 87 fc 3c de 00 0e bc
       -0.048295997 0.004043251 0.030826509 -0.008667199
0000e0 b1 9e 04 bd 6e f1 35 bc db 9f a4 3c 52 69 f1 bb
       -0.032377902 -0.011104925 0.020095756 -0.0073672915
0000f0 6c 6a 7a bd b5 3c 85 bd b6 d7 5f bd 87 72 61 bd
       -0.061136648 -0.065057196 -0.054649077 -0.055040862
000100 26 b9 2a 3d 37 b1 d2 bc b6 78 6d bd 13 f7 eb bb
       0.041680478 -0.025719268 -0.057976447 -0.0072010844
000110 54 ad 91 bc 0f 11 be bc 5c 6d 40 bd d4 b3 f5 bc
       -0.017782845 -0.023201494 -0.046979293 -0.029992975
000120 4d d0 f2 bc f9 58 ba 3d ec 44 a2 3d 5d 42 72 3c
       -0.029640341 0.090990014 0.07923302 0.01478633
000130 ad bc fc bc db 91 e5 bc b6 61 30 bb c5 45 8d bc
       -0.030851686 -0.02802365 -0.002691371 -0.017245183
000140 e2 aa df 3c 59 3f 59 3d c7 8e 5f 3d 91 e6 be 3d
       0.027303163 0.05303893 0.054579522 0.09321321

fc3.weight f4 [6, 84]
000000 66 c5 17 3d 26 44 75 bd b8 d2 01 bb 6d 7a cf 3d
       0.03705349 -0.059879445 -0.0019809436 0.10130773
000010 c0 c3 0c 3c 58 55 7a 3d 8f fd 89 3d 0d 22 8b 3c
       0.008591592 0.061116546 0.067378156 0.01698401
000020 95 78 55 3c 5c 49 ca bb f7 c9 c5 bd cd 23 bc bd
       0.013029237 -0.006173296 -0.09657662 -0.09186516
000030 c3 2d 71 3d b1 2a 8c bd c2 44 15 3d 8f 79 3b bb
       0.058881532 -0.0684408 0.036442526 -0.002860639
000040 a2 62 09 3d 33 8f 04 bc 17 03 8a bd 1b c3 19 bd
       0.03354133 -0.008090782 -0.067388706 -0.037539583
000050 41 be b7 bd b5 f2 af 3d 5f dd 88 3c 2d fe c8 3d
       -0.08971835 0.085912146 0.01670712 0.09814105
000060 06 b1 47 3d 58 b8 2d 3d fa 29 73 bd 5a 71 ad 3c
       0.048752807 0.042412132 -0.059366204 0.021172214
000070 75 9e 5e bd 3d c1 31 bd 5f 74 a2 bc f5 6d ab 3d
       -0.054350335 -0.043397177 -0.01983088 0.08370582
000080 4c ab 9f 3d 72 f9 86 3d ed 03 dd 3d 03 1a e4 3a
       0.07796344 0.06590547 0.107917644 0.0017402772
000090 d4 81 95 bd f7 53 c4 bd 38 ce 25 3d fa 06 bc 39
       -0.073001534 -0.095863275 0.04047987 0.00035863352
0000a0 9e d6 c9 bd 9a ae c1 bd a3 24 94 bd a3 48 d3 bc
       -0.09855388 -0.09457131 -0.072335504 -0.025791472
0000b0 71 04 dd 3d df 2f 3b 3d 2a 1a 4a 3d 2f 7a 4b 3d
       0.10791863 0.04569995 0.04934136 0.04967707
0000c0 15 18 6e bd 8b ea 3b 3b a0 b5 9c 3d 61 fc be bd
       -0.058128435 0.0028673734 0.0765183 -0.09325481
0000d0 b5 77 a1 3d 88 1c ff bd 64 b6 60 bd 12 d1 84 bd
       0.078841604 -0.12456614 -0.05486144 -0.064851895
0000e0 4f 19 8f 3c 4e d2 9f 3b 0b 8b cb bd 0e 34 d0 bd
       0.017468123 0.004877365 -0.0993863 -0.10166179
0000f0 ad 69 c2 bd 48 79 2f 3d f5 24 5b 3d 40 40 b5 3d
       -0.09492812 0.042840272 0.05350204 0.08850145
000100 01 5e 84 bd 55 c2 25 bd fb c0 9f bd d8 fb fb bc
       -0.06463242 -0.040468533 -0.0780048 -0.030759737
000110 16 99 8d 3d e4 43 a2 bd 0f 0e 90 3d 7f 5d 2b 3d
       0.069139645 -0.07923105 0.070339315 0.04183721
000120 a4 d9 c9 bd f8 7c a8 3d ba a2 dc bc b2 bb 28 bd
       -0.09855965 0.08226961 -0.026933063 -0.041194625
000130 7c a9 13 3d 6f e1 d0 3d c9 76 78 3d 3c d1 53 3c
       0.036050305 0.10199248 0.060660157 0.012928303
000140 9a b4 94 3d 90 87 46 3c 6d 3c 91 3d 2d aa c3 3c
       0.072610095 0.012117282 0.070916034 0.023884857
000150 4d 98 b9 3d 2f c8 c9 bd d1 24 60 bc c5 84 e2 bc
       0.09062252 -0.09852635 -0.013680653 -0.0276512
000160 77 a7 0d bd 22 7b 1f bd 71 87 75 ba 14 eb 12 be
       -0.034583535 -0.038935788 -0.00093661906 -0.14347488
000170 b2 59 0a 3a ea d4 52 bd bd 82 23 bd d8 2d c4 3d
       0.0005277648 -0.051472582 -0.039919604 0.095790565
000180 f1 44 cd bd 12 84 4b bd 2f 73 0f bc 95 ae 08 bd
       -0.10022915 -0.0496865 -0.008755489 -0.03336962
000190 da c9 22 3d 4e e6 cf bd 1d 86 b8 bd 50 a1 62 bd
       0.039743282 -0.10151349 -0.09009955 -0.05532962
0001a0 9a d7 a0 3d 13 88 3d bd 5d bf 97 3d ad 4a 0a 3c
       0.07853623 -0.04627235 0.074095465 0.008440656
0001b0 75 3a ad 3d 98 47 73 3d 32 cd 3e bc af 02 a4 3d
       0.084584154 0.05939445 -0.011645602 0.08008324
0001c0 90 e2 18 bd 20 74 21 bd bd d3 62 3d 36 a6 80 bd
       -0.03732544 -0.039417386 0.05537771 -0.06281702
0001d0 fa 75 bc 3d 77 84 f2 bc a1 b9 d8 bd 80 35 09 3d
       0.0920219 -0.02960418 -0.10582281 0.033498287
0001e0 29 1d d5 bd db c9 eb bc 05 65 0e bd bb e8 8e 3c
       -0.104059525 -0.028782776 -0.03476431 0.017444959
0001f0 25 b0 c8 3d 48 fe 77 3d 16 8c 2a 3d e7 42 8c bc
       0.09799222 0.060545236 0.041637503 -0.017121745
000200 da fd 0a bb b8 4e 9c 3b 87 d1 cd 3d c4 53 bc 3d
       -0.0021208436 0.004770126 0.1004973 0.091956645
000210 09 df 2e 3d 65 a7 ca 3c 1e 2f 33 bd 09 d5 86 3d
       0.04269317 0.024738023 -0.043746106 0.06583602
000220 2c c8 bc 3c a4 f9 63 3b 17 c2 81 bd 9d 02 b1 3c
       0.023044668 0.0034786249 -0.06335848 0.021607691
000230 44 f4 b7 3d 2f 2a b7 bd d2 50 dc bd 62 db e0 bd
       0.08982137 -0.08943593 -0.10757603 -0.10979344
000240 00 72 9e bd c4 ab 24 3d 9a f0 0e 3d 26 1e 9e bd
       -0.077365875 0.04020287 0.034897424 -0.07720594
000250 b4 50 d1 bd fc da 7a bd fb dc ea 3c 35 e5 9e 3d
       -0.10220471 -0.061243996 0.028669825 0.077585615
000260 70 f2 ac bd d1 de fc bc 01 ec 59 bd 37 d6 a7 bc
       -0.08444679 -0.030867966 -0.053203586 -0.020487888
000270 9e 4c af 3d fd de 32 3d 72 94 ae 3c 99 af a1 3d
       0.085595354 0.04366969 0.021311019 0.07894821
000280 d8 2f 97 bc b8 78 0b 3d bc 6c 89 3d a2 83 af bd
       -0.01845543 0.034050673 0.067101926 -0.08570029
000290 33 51 19 3d c3 05 bf bd df 88 6c 3c 7a bf f3 bd
       0.037430953 -0.09327271 0.0144369295 -0.11901756
0002a0 a0 92 a6 3c 84 99 84 bd c1 4b 0f bd ea a5 da bd
       0.020333588 -0.06474593 -0.034984354 -0.10676177
0002b0 6c 05 74 bd 11 30 a5 3c a2 bc 92 3c 57 d7 d8 bd
       -0.059575483 0.020164521 0.017912213 -0.10587948
0002c0 35 86 5c 3c 94 33 cd 3b 5c bf 7d 3d e0 0f a0 bc
       0.013459732 0.006262252 0.061950073 -0.01953882
0002d0 ca 87 cb bd 1e 9d c9 3d c9 6a 86 bd f4 a6 30 3d
       -0.09938009 0.09844421 -0.065633364 0.04312797
0002e0 bf 38 28 3d 00 c0 d0 bd 38 39 f4 3c d2 1b e1 3c
       0.041069742 -0.10192871 0.02981244 0.027479086
0002f0 c9 df b3 3d e1 ac ef 3c d8 4b 69 3d ef 3a 8d 3d
       0.08782918 0.02925724 0.056957096 0.06896006
000300 bc 51 85 3d ae b6 84 bd df a8 e4 bc c4 5f f8 3c
       0.0650973 -0.06480156 -0.027912555 0.030319102
000310 f1 a5 cd 3d a0 e1 54 bd ef 5e af bd 98 f2 a0 bc
       0.100414164 -0.051972985 -0.08563029 -0.019646928
000320 f6 b7 6c bc a1 a3 ef bb 6e 66 b0 3d ee 97 81 bd
       -0.014448157 -0.0073132073 0.08613287 -0.063278064
000330 88 9d d4 bd 57 a0 8c 39 1c 14 04 ba 28 37 52 bd
       -0.10381609 0.00026822343 -0.0005038397 -0.051322132
000340 30 6c 81 bd 29 d7 cc bd 29 b6 5b 3d c8 fa c0 bc
       -0.06319463 -0.10001976 0.05364052 -0.023557082
000350 c0 67 94 3d 6d 1c ac bc 8a 1f ee bd 47 0d f9 3c
       0.07246351 -0.021009648 -0.11627109 0.030401839
000360 ea c0 10 bc 58 f9 6a 3c 5f 97 50 bd 0b c9 da 3d
       -0.008835057 0.014341675 -0.05092561 0.10682877
000370 61 d5 f1 3b f2 ac 4f 3c bf df 82 3d d1 b2 84 3d
       0.007380173 0.012675511 0.063903324 0.06479419
000380 64 52 cc bd 6c ae d5 3c 17 d0 e8 bc 26 1b 44 bd
       -0.09976652 0.026084147 -0.028419537 -0.047877453
000390 49 91 c7 bc c6 14 57 3d 34 ff a8 3b a2 21 5e bd
       -0.02436127 0.052510045 0.0051573757 -0.054231293
0003a0 15 fa 93 bd 96 8e ee bb 7b ae 66 3a ac e7 c5 3d
       -0.07225434 -0.007280181 0.00087998033 0.096633285
0003b0 c5 7e 92 3d 81 70 8c 3c 6e e8 45 3d ce 37 94 bd
       0.071530856 0.01714349 0.048317365 -0.072372064
0003c0 f4 2d 23 bd 2f a7 ec 3d 36 66 d9 3d 50 54 0d 3d
       -0.039838746 0.11555325 0.10615198 0.034504235
0003d0 08 e4 11 3c 6f 93 01 bd 8d 04 39 bd 0b 94 83 bd
       0.008904465 -0.031634744 -0.045170356 -0.06424721
0003e0 a3 f2 48 bc eb 7a 42 bd 59 c4 b3 3c 2a cc d7 3d
       -0.01226488 -0.047480505 0.021944212 0.10536988
0003f0 57 21 ce 3d 57 9a 2a 3d a4 4b 6e bd 22 35 9a bb
       0.10064953 0.041651096 -0.058177605 -0.004706041

fc3.bias f4 [6]
000000 cf e4 e7 3c f0 a2 8e bd 58 bc d2 bd be 18 d2 3d
       0.028307347 -0.069646716 -0.1028983 0.102586254
000010 ef c8 25 3d 54 e4 a0 bd
       0.04047483 -0.0785605
